Crop/best_model.pth (torch, 20533 bytes, 14 tensors)

fc1.weight f4 [64, 7]
0.2584635 0.2997138 -0.30133873 0.19313683 0.07202908 0.061047 -0.26451966 0.10445326
0.27300274 -0.23403805 0.10996054 0.3472017 0.06683787 -0.0065226965 0.16366103 -0.12070046
0.24194215 0.078131944 -0.22521088 0.041263912 -0.14379588 1.8104303e-24 2.6031352e-14 6.1463543e-06
-0.000109319735 -6.870509e-11 -2.150557e-20 -7.404025e-07 0.050239313 -0.33122846 0.35518995 -0.26973754
0.2868344 0.054406445 -0.12578975 0.16938226 -0.11093839 0.29728416 -0.013929165 -0.19288783
-0.031946592 0.021209003 0.077005506 0.44368827 -0.11306249 0.06099901 0.32396248 0.12818573
0.1185115 -0.07189208 -0.3595519 -0.017832436 -0.05605715 0.4986468 0.0029004342 0.11156199
0.037336815 0.014183417 0.1686675 -0.0106888795 0.033353023 -0.0033797014 0.21504244 -0.15946674
0.0037456537 0.01755403 0.47587234 -0.2063971 -0.01674433 -0.41073412 0.10045871 0.11517189
0.44049802 -0.036873225 -0.37936336 -0.027797982 -0.42702404 0.1276209 0.07427917 0.2880027
-0.040124066 -0.42794526 0.11497235 0.0021486247 0.24732192 -0.19958204 0.2393175 -0.13946642
-0.19643882 0.17320758 0.12120671 -0.031282675 0.04445982 0.2767494 -0.016533375 -0.21614099
0.18605822 -0.6339878 -0.08280564 -0.32681677 -0.08229346 0.1453131 -0.17045467 -0.010373533
-0.117345825 -0.03811864 -0.111139216 -0.03238383 -0.029694041 -0.11416403 0.19013882 -0.018701784
0.079396114 -0.4738876 -0.037050452 -0.010015016 0.088223234 -0.10210158 -0.32943428 -6.6723885e-07
-1.3225296e-26 8.661745e-17 -8.292942e-25 -9.213041e-06 -1.1672035e-05 -3.5155364e-07 -0.09410684 -0.21636346
0.2684254 -0.05239688 0.30969682 0.10540521 -0.32209834 0.042949855 0.0017967882 -0.03562892
-0.015451341 -0.014248749 -0.019747956 0.010625491 0.032401707 -0.41448668 0.43153918 -0.046478473
-0.20054805 -0.036130313 0.124504946 0.22433592 0.4039637 -0.29479253 -0.12204116 -0.30175278
-0.00088727847 -0.14541487 0.22087106 -0.1645871 0.32607365 0.118423134 0.254511 -0.02028421
0.10168481 0.13042012 0.21998638 -0.23819019 -0.049546782 -0.18764623 -0.10284281 0.17126638
0.071975164 -0.17644715 -0.56558436 0.023920018 0.043966986 0.0003309357 -0.055049606 0.040392186
-0.47118977 -0.26809964 0.16370124 -0.30346105 0.12968321 0.03656659 0.027683467 -0.02859954
0.015210802 0.18310137 0.18178159 -0.0145778 -0.1323274 -0.0011262776 0.207725 -0.19424425
0.020042848 0.283565 0.015670072 -0.08168802 -0.03819207 -0.065678485 0.05475988 0.06012511
-0.3791798 -0.16131954 0.2754277 2.8213204e-15 5.683792e-25 -7.897663e-07 -1.1118567e-06 -0.0005410873
1.6257257e-18 2.4648034e-18 0.11725177 -0.009047386 -0.7222856 -0.036579326 0.061022375 0.046025217
0.08591657 0.06200492 0.1920354 -0.24412826 -0.21489422 0.2579213 -0.03191838 -0.098707765
-0.4796974 0.32381305 0.33677492 0.11830195 -0.16711475 -0.30721325 -0.2616794 0.2809481
-0.0023370204 0.27241555 0.08537143 0.1836958 0.076190345 -0.25805405 -0.00032026926 -0.0008692106
-4.668819e-14 -1.3531247e-09 -5.586341e-23 -2.4683413e-07 -2.1884627e-23 -0.17299372 -0.21928036 0.043198425
-0.03601923 0.2930364 0.004463857 -0.28644252 -0.07714268 -0.1923176 -0.12794536 -0.34967375
00000000: 5455 843e 1674 993e 1249 9abe a9c5 453e
00000010: fb83 933d 6b0c 7a3d 1f6f 87be 97eb d53d
00000020: 04c7 8b3e aca7 6fbe fe32 e13d 6cc4 b13e
00000030: 4be2 883d 58bc d5bb c296 273e ce31 f7bd
00000040: afbf 773e a403 a03d ae9d 66be 5904 293d
00000050: 3a3f 13be 4413 0c18 3678 ea28 c83c ce36
00000060: 9642 e5b8 8715 97ae 471d cb9e 13c0 46b5
00000070: bdc7 4d3d c796 a9be 75db b53e 0a1b 8abe
00000080: f5db 923e 4bd9 5e3d 07cf 00be 8b72 2d3e
00000090: ab33 e3bd a135 983e 2737 64bc 6384 45be
000000a0: 6eda 02bd 81be ad3c 10b5 9d3d 1c2b e33e
000000b0: 4f8d e7bd 19da 793d 69de a53e 1f43 033e
000000c0: 28b6 f23d 283c 93bd 3017 b8be 5415 92bc
000000d0: 2f9c 65bd a24e ff3e 3615 3e3b 9d7a e43d
000000e0: 7dee 183d 9061 683c 2cb7 2c3e 6920 2fbc
000000f0: 2e9d 083d fb7d 5dbb 1634 5c3e 404b 23be
00000100: a479 753b 78cd 8f3c 8aa5 f33e c359 53be
00000110: 682b 89bc be4b d2be 4cbd cd3d 3ddf eb3d
00000120: f588 e13e 6108 17bd ea3b c2be 98b8 e3bc
00000130: e5a2 dabe 0eaf 023e ad1f 983d 1775 933e
00000140: 2259 24bd a41b dbbe a076 eb3d f1cf 0c3b
00000150: f541 7d3e 3c5f 4cbe a60f 753e 49d0 0ebe
00000160: 4227 49be 545d 313e 393b f83d 4322 00bd
00000170: 801b 363d 19b2 8d3e 0071 87bc 1054 5dbe
00000180: 0c86 3e3e 064d 22bf 0196 a9bd 8754 a7be
00000190: 7989 a8bd f5cc 143e ab8b 2ebe c0f5 29bc
000001a0: 0253 f0bd 4b22 1cbd f59c e3bd e8a4 04bd
000001b0: eb40 f3bc d5ce e9bd c0b3 423e 7c34 99bc
000001c0: 6e9a a23d 65a1 f2be 37c2 17bd 0616 24bc
000001d0: 62ae b43d a21a d1bd 9cab a8be 4e1c 33b5
000001e0: 1cfa 8294 ebb9 c724 ba53 8097 b691 1ab7
000001f0: 02d3 43b7 2abd bcb4 16bb c0bd 628e 5dbe
00000200: 0e6f 893e 1c9e 56bd 9590 9e3e b0de d73d
00000210: 13ea a4be 30ec 2f3d 3582 eb3a a1ef 11bd
00000220: 9f27 7dbc 9673 69bc 77c6 a1bc 8a16 2e3c
00000230: a7b7 043d 9937 d4be b4f2 dc3e 3660 3ebd
00000240: 785c 4dbe 61fd 13bd 73fc fe3d 51b8 653e
00000250: 55d4 ce3e 0cef 96be b7f0 f9bd 577f 9abe
00000260: 4098 68ba a3e7 14be 062c 623e 8589 28be
00000270: 20f3 a63e d487 f23d 444f 823e 122b a6bc
00000280: 2040 d03d da8c 053e 1c44 613e 21e8 73be
00000290: 91f1 4abd 5526 40be 409f d2bd 7460 2f3e
000002a0: b767 933d 90ae 34be 23ca 10bf eaf3 c33c
000002b0: ba16 343d 7081 ad39 b27b 61bd 4772 253d
000002c0: c93f f1be 5b44 89be 4ca1 273e 3f5f 9bbe
000002d0: adcb 043e d9c6 153d 70c8 e23c 9549 eabc
000002e0: ba36 793c ed7e 3b3e f424 3a3e bad7 6ebc
000002f0: d580 07be 9b9f 93ba ddb5 543e f7e7 46be
00000300: e630 a43c 6f2f 913e 865e 803c 0c4c a7bd
00000310: 4a6f 1cbd 7182 86bd e54b 603d bf45 763d
00000320: db23 c2be f330 25be dc04 8d3e 2d4c 4b27
00000330: a4e7 2f17 5400 54b5 1b3b 95b5 c1d7 0dba
00000340: 2eea ef21 d2de 3522 b221 f03d 7d3b 14bc
00000350: b6e7 38bf 34d4 15bd 99f2 793d f084 3c3d
00000360: 07f5 af3d dff8 7d3d eea4 443e c2fc 79be
00000370: 3b0d 5cbe 430e 843e d9bc 02bd 4c27 cabd
00000380: e69a f5be d3ca a53e c36d ac3e 4b48 f23d
00000390: 2120 2bbe 0e4b 9dbe d8fa 85be 6ed8 8f3e
000003a0: b228 19bb 0d7a 8b3e 37d7 ae3d c01a 3c3e
000003b0: af09 9c3d a91f 84be d0e9 a7b9 bcdb 63ba
000003c0: d143 52a9 d8f8 b9b0 c711 879a a084 84b4
000003d0: b6a7 d399 4425 31be 088b 60be d5f0 303d
000003e0: e688 13bd de08 963e 8c45 923b 98a8 92be
000003f0: fbfc 9dbd e8ee 44be 1c04 03be 7008 b3be

fc1.bias f4 [64]
-0.13321403 -0.45797205 0.09188151 -0.0014862533 -0.3127514 0.12627058 -8.073047e-05 -0.15027173
-0.26710805 0.093059964 -0.029733153 -0.09925934 -0.078983895 0.0475547 0.1621017 -0.15037827
0.05582075 -6.294465e-09 -0.32524696 -0.05822407 0.23163806 0.3510925 -0.32677934 0.2530143
0.09065033 0.13493133 -0.2919348 -0.23103064 -0.23791924 -8.534641e-06 -0.05292958 -0.047670815
0.15035656 -0.33175144 -4.393198e-07 -0.06515735 -0.23584595 -0.36413673 -0.06646345 -0.18638445
0.39331013 0.24314089 0.050353307 -0.22264487 0.116026066 -0.10775868 0.015027258 0.023854647
0.10960966 0.277152 -0.062483277 -0.06107146 -0.11684411 -0.19988017 -0.12190114 0.31138608
0.11603585 0.20474 -0.28829694 -0.21807274 -0.21041736 -0.18371883 0.06200384 -0.33280015
00000000: 4269 08be 507b eabe 602c bc3d 63ce c2ba
00000010: f420 a0be 134d 013e d74d a9b8 d5e0 19be
00000020: 63c2 88be 3996 be3d f192 f3bc 7b48 cbbd
00000030: 4fc2 a1bd b8c8 423d fdfd 253e c3fc 19be
00000040: 4ca4 643d b346 d8b1 c586 a6be 5d7c 6ebd
00000050: 8732 6d3e 65c2 b33e 9f4f a7be 178b 813e
00000060: e1a6 b93d 702b 0a3e 7a78 95be 4c93 6cbe
00000070: 1aa1 73be 0130 0fb7 b0cc 58bd 7942 43bd
00000080: 12f7 193e 53db a9be a7db ebb4 3771 85bd
00000090: 9a81 71be 2170 babe fd1d 88bd 91db 3ebe
000000a0: f25f c93e edf9 783e 453f 4e3d 04fd 63be
000000b0: 139f ed3d 95b0 dcbd e334 763c d26a c33c
000000c0: 087b e03d dee6 8d3e 77ee 7fbd 1126 7abd
000000d0: f74b efbd 63ad 4cbe 4ea7 f9bd ff6d 9f3e
000000e0: 34a4 ed3d 5da7 513e a89b 93be 764e 5fbe
000000f0: a677 57be ca20 3cbe bdf7 7d3d c864 aabe

bn1.weight f4 [64]
0.92126995 1.0213343 0.9658587 0.26485085 0.88449436 0.8576622 0.97302395 0.92513174
1.0718417 0.9637165 0.9928789 0.97295284 1.1586481 1.0169761 0.96359634 0.26442173
0.93987775 0.26485085 0.338368 0.29556262 1.0153 0.85312825 0.9552962 0.9330915
0.900753 0.96978855 1.0310842 0.9865321 0.9597412 0.26485085 1.0781728 0.86812603
0.87795043 0.98736054 0.26485085 0.89430285 0.8962888 0.8800841 0.95623875 0.9416034
1.0217578 1.0257882 1.0377584 1.0115436 0.92266077 1.0184025 1.0115875 1.0168258
1.0712855 1.0616653 1.0115169 0.26728967 1.0480179 0.95142 0.9254185 0.9720163
1.0187659 0.9519546 0.73528814 0.9056656 1.025644 1.0398113 1.0318973 0.94043356
00000000: 59d8 6b3f 15bb 823f 8442 773f 889a 873e
00000010: 396e 623f c08f 5b3f 1918 793f 6fd5 6c3f
00000020: 1c32 893f 20b6 763f 502d 7e3f 7013 793f
00000030: 954e 943f 462c 823f 40ae 763f 4962 873e
00000040: d49b 703f 889a 873e 923e ad3e fc53 973e
00000050: 5af5 813f 9d66 5a3f 4b8e 743f 16df 6e3f
00000060: c097 663f 1044 783f 91fa 833f 5e8d 7c3f
00000070: 99b1 753f 889a 873e 9101 8a3f 823d 5e3f
00000080: 5cc1 603f a9c3 7c3f 889a 873e 08f1 643f
00000090: 2f73 653f 314d 613f 10cc 743f ec0c 713f
000000a0: f6c8 823f 074d 833f 44d5 843f 437a 813f
000000b0: 7f33 6c3f 035b 823f b37b 813f 5927 823f
000000c0: e21f 893f a6e4 873f 6379 813f 31da 883e
000000d0: 7325 863f 4390 733f 3ae8 6c3f 0fd6 783f
000000e0: ec66 823f 4cb3 733f d83b 3c3f b3d9 673f
000000f0: 4d48 833f 8918 853f 3615 843f 41c0 703f

bn1.bias f4 [64]
-0.096656874 0.07741169 0.290447 -0.061132014 0.0476102 0.19474326 -0.14534397 0.08491563
-0.3809536 0.36494467 0.122335725 0.13109031 0.3006324 0.03357179 0.15161937 0.06615745
0.10794758 0.063952185 0.027202638 -0.05238033 0.102509566 0.08811867 -0.0079964595 -0.17278746
0.050099514 0.075091794 0.047054827 -0.0033432327 0.05125759 -0.051090576 0.014723301 0.22494322
0.2020177 0.24539684 0.048803713 0.059168734 -0.053188648 0.088294625 -0.0032946558 0.08546948
0.14529243 0.21951227 0.11042613 -0.121012695 0.36776286 0.15283835 -0.049716093 0.13907349
-0.05889936 0.03344884 0.23531388 -0.032141592 0.0002107826 0.02545431 0.038984522 0.1881344
0.25290456 0.2594301 0.07000131 -0.042713135 0.15839942 0.03827875 0.36073676 0.23913458
00000000: 0af4 c5bd 058a 9e3d 78b5 943e 9065 7abd
00000010: ea02 433d c76a 473e 0dd5 14be 3fe8 ad3d
00000020: 5a0c c3be 07da ba3e 278b fa3d 8a3c 063e
00000030: 7dec 993e 9382 093d 1c42 1b3e 8f7d 873d
00000040: 9f13 dd3d 5df9 823d 11d8 de3c c28c 56bd
00000050: 89f0 d13d 9077 b43d 9503 03bc 32ef 30be
00000060: 2635 4d3d bac9 993d 90bc 403d 231a 5bbb
00000070: 7bf3 513d 5a44 51bd 003a 713c 8457 663e
00000080: badd 4e3e 4f49 7b3e 67e6 473d ea5a 723d
00000090: 57dc 59bd d0d3 b43d 27eb 57bb 9f0a af3d
000000a0: 8ac7 143e d3c7 603e 1827 e23d 81d5 f7bd
000000b0: 6a4b bc3e a881 1c3e 1aa3 4bbd 4869 0e3e
000000c0: 7540 71bd a701 093d 1ff6 703e e7a6 03bd
000000d0: 8605 5d39 8f85 d03c 3cae 1f3d 4ea6 403e
000000e0: b57c 813e 06d4 843e d95c 8f3d f8f3 2ebd
000000f0: 7533 223e 2eca 1c3d 7db2 b83e b2df 743e

bn1.running_mean f4 [64]
0.12634468 0.028351668 0.043533657 0.0 7.506516e-06 0.07790254 0.53108436 0.103355154
0.0038020879 0.067749806 0.009273556 0.007747454 0.023830809 0.016001161 0.0091221435 8.956023e-21
0.0101418 0.0 4.356626e-10 5.025202e-08 0.070112824 0.22175075 0.08958478 0.21257083
0.045602217 0.01629176 0.002043141 0.0275344 6e-45 0.0 0.028678048 0.044536456
0.061724737 0.045032866 0.0 0.009932276 6e-45 0.06729901 0.011520167 0.02501126
0.050746836 0.07592714 0.008391841 0.042272456 0.09743661 0.02410451 0.003470056 0.005371387
0.0075242682 0.043118816 0.023192754 6e-45 0.014345337 6e-45 0.07996663 0.16226918
0.07631954 0.018776014 6e-45 6e-45 0.008242556 0.021181192 0.024864435 0.06007283
00000000: 8060 013e c241 e83c 5950 323d 0000 0000
00000010: 7be0 fb36 5e8b 9f3d 25f5 073f deab d33d
00000020: 732c 793b 69c0 8a3d 1df0 173c 5bde fd3b
00000030: d438 c33c de14 833c 0b75 153c ab2c 291e
00000040: cb29 263c 0000 0000 0f82 ef2f aed4 5733
00000050: 5097 8f3d a112 633e 3a78 b73d 2bac 593e
00000060: 64c9 3a3d 4c76 853c 38e6 053b d28f e13c
00000070: 0400 0000 0000 0000 3aee ea3c dc6b 363d
00000080: 14d3 7c3d 6274 383d 0000 0000 fcba 223c
00000090: 0400 0000 10d4 893d 15bf 3c3c 6ae4 cc3c
000000a0: eadb 4f3d b07f 9b3d ef7d 093c e225 2d3d
000000b0: d88c c73d d276 c53c e169 633b 7602 b03b
000000c0: 238e f63b 5b9d 303d bbfe bd3c 0400 0000
000000d0: b408 6b3c 0400 0000 8bc5 a33d e429 263e
000000e0: 6b4d 9c3d 28d0 993c 0400 0000 0400 0000
000000f0: c90b 073c 2e84 ad3c 80b0 cb3c ee0e 763d

bn1.running_var f4 [64]
0.014824043 0.0019837262 0.0030205655 6e-45 5.2801774e-08 0.0046316804 0.0183261 0.015754921
0.00013329335 0.01112357 0.0009491027 0.001313333 0.0027967987 0.001827779 0.0008136587 5.6974766e-23
0.0011466654 6e-45 1.2527478e-13 2.794116e-10 0.004198956 0.021967938 0.008141735 0.012403196
0.0019340931 0.0017362715 7.6246586e-05 0.001144807 6e-45 6e-45 0.0017347508 0.0024824264
0.020496465 0.00605042 6e-45 0.00052229787 6e-45 0.008714329 0.0011270595 0.0015968877
0.0031509113 0.009361331 0.00033986618 0.002768478 0.013464119 0.002389399 0.00028644843 0.00031717782
0.000286773 0.004536811 0.00309649 6e-45 0.0013679535 6e-45 0.010218227 0.015376966
0.010896496 0.0008485652 6e-45 6e-45 0.00028856585 0.0023206153 0.0018238816 0.007338275
00000000: 8be0 723c 6701 023b aef4 453b 0400 0000
00000010: 2ac8 6233 5ac5 973b 9e20 963c 7710 813c
00000020: a9c4 0b39 a23f 363c 34cd 783a 2524 ac3a
00000030: 7f4a 373b 1692 ef3a b64b 553a acc1 891a
00000040: b54b 963a 0400 0000 ff0b 0d2a b09b 992f
00000050: 6597 893b 1bf6 b33c e964 053c c636 4b3c
00000060: 6581 fd3a 9b93 e33a 93e6 9f38 590d 963a
00000070: 0400 0000 0400 0000 9460 e33a 34b0 223b
00000080: 34e8 a73c 9a42 c63b 0400 0000 d1ea 083a
00000090: 0400 0000 8cc6 0e3c d7b9 933a a94e d13a
000000a0: 857f 4e3b 4560 193c 1130 b239 5a6f 353b
000000b0: 9c98 5c3c 7797 1c3b 752e 9639 e34a a639
000000c0: 055a 9639 87a9 943b 7bee 4a3b 0400 0000
000000d0: e74c b33a 0400 0000 5a6a 273c acef 7b3c
000000e0: 3787 323c 3f72 5e3a 0400 0000 0400 0000
000000f0: a74a 9739 7715 183b 500f ef3a ea75 f03b

fc2.weight f4 [32, 64]
-0.02361816 -0.095341735 0.0005112852 -0.12836033 0.05356829 -0.07428602 0.071669355 -0.05774369
0.031224083 0.04409222 0.026685722 -0.031189017 -0.1024899 -0.048337065 -0.10024123 0.044558764
-0.09923618 0.09868499 0.029917235 -0.092679106 -0.039727543 0.015949955 -0.019180182 -0.09934269
-0.040904086 -0.037984245 0.08104785 0.023177741 -0.039118636 -0.0943591 -0.04086167 -0.039813146
0.0012984662 0.02151944 0.13813488 -0.08789793 0.041351385 -0.032422904 0.08223078 0.014366022
-0.20002407 0.017608413 0.1670201 -0.097844176 0.10174083 -0.09693962 -0.16632096 -0.039744247
-0.10399075 -0.02623409 0.0023420556 -0.12760729 0.012418677 0.048499696 -0.14123835 -0.1500169
-0.15918912 -0.1644567 0.035556193 -0.10979005 -0.03822218 0.04791761 0.024105096 -0.061946638
-0.018006142 0.04031416 -0.08185515 -0.047602337 -0.0031705282 -0.014726912 0.047549047 0.07833332
-0.035614166 -0.09756121 -0.13889822 -0.041479073 0.02451951 -0.06603226 -0.011035766 0.04074573
-0.2738137 0.059223108 -0.006323271 -0.09968078 0.015106309 -0.05325694 0.152851 0.043444913
-0.02649941 0.061671283 -0.102256134 0.061491698 -0.044481467 -0.0786603 -0.020262714 -0.0021166736
-0.010711156 0.011048243 0.09138692 0.044063807 -0.08126623 0.04872848 0.0049301693 -0.04355843
-0.14849813 -0.079796955 0.03735157 0.08259247 -0.10246418 0.021377325 -0.09709212 -0.107348196
-0.093519345 -0.029691553 -0.070292465 0.011105119 -0.065760694 0.041373894 -0.03239475 0.03569772
0.091294326 -0.02821619 0.0045307404 -0.06607847 0.00073929725 -0.067479335 -0.2536423 0.024135338
-0.106063195 -0.24764451 0.11947127 -0.007101527 -0.026901014 0.031627353 -0.13271952 -0.04147598
-0.069662325 -0.083201356 -0.0065069897 -0.00014161305 0.029739948 -0.0051390473 -0.035581283 0.08228614
-0.022881772 0.010113438 0.031603936 -0.009316684 0.13571525 -0.074314356 0.025189737 -0.069511324
0.08173196 0.05709827 -0.0005551829 0.0065215826 0.09345936 -0.09347336 -0.055269223 -0.02382041
-0.0028578874 0.021011926 -0.01645811 0.017228512 -0.05514312 -0.121287845 -0.0069422685 -0.058086567
-0.011153107 -0.08320238 0.0047611487 0.052063316 -0.031907447 0.037817057 -0.18688911 0.030056039
-0.20229809 -0.0001007665 0.02626106 0.013308117 -0.02096076 0.1300486 0.024677273 0.012773791
-0.028014235 -0.0154598 0.022203332 0.021805568 -0.059412487 0.03683147 -0.09661162 0.0050197756
-0.024213936 -0.13324718 0.026307559 0.011393664 -0.10890811 -0.028681476 -0.0757203 0.026571788
0.04148251 -0.2893027 0.002451594 -0.00018278972 -0.008793794 0.0240993 -0.15960525 -0.05345234
0.022318281 0.05702605 0.0021147716 0.024016228 -0.0031463003 0.050054293 -0.10552251 -0.01250194
0.025422098 -0.15695219 -0.13298605 -0.10906985 -0.07736363 0.027462825 0.054231975 0.12020816
-0.074749544 0.01920084 0.024729379 -0.04551067 0.080401994 -0.024401395 0.08473688 0.014412567
0.038419954 0.047766894 0.004861996 0.04338108 -0.17689832 0.029698024 -0.13535972 -0.012444922
-0.028512416 -0.11926746 -0.040365253 -0.049127184 0.01950613 0.025216205 0.042734038 0.008922935
-0.006249086 0.030980553 -0.05310404 -0.03402759 -0.1509734 -0.082474194 0.024520647 -0.31669158
00000000: df7a c1bc 8742 c3bd c507 063a e470 03be
00000010: 6c6a 5b3d 4523 98bd 62c7 923d a684 6cbd
00000020: a6c9 ff3c 0b9a 343d 049c da3c 1c80 ffbc
00000030: 3ae6 d1bd 16fd 45bd 464b cdbd 4083 363d
00000040: 573c cbbd 5b1b ca3d fd14 f53c 8bce bdbd
00000050: 59b9 22bd 7ba9 823c c21f 9dbc 2e74 cbbd
00000060: 0b8b 27bd 5e95 1bbd 6afc a53d 3fdf bd3c
00000070: dd3a 20bd 583f c1bd 915e 27bd 1c13 23bd
00000080: 4c31 aa3a 8949 b03c 3b73 0d3e d403 b4bd
00000090: 1260 293d e1cd 04bd 9c68 a83d 775f 6b3c
000000a0: 1cd3 4cbe 853f 903c 5107 2b3e 8762 c8bd
000000b0: 7f5d d03d 4888 c6bd 0b50 2abe ddca 22bd
000000c0: 1af9 d4bd e0e8 d6bc 2c7d 193b 7cab 02be
000000d0: b577 4b3c 9ea7 463d c9a0 10be 089e 19be
000000e0: 7902 23be 5667 28be 5fa3 113d 9bd9 e0bd
000000f0: dc8e 1cbd 4145 443d 0d78 c53c c2bb 7dbd
00000100: 9e81 93bc 7620 253d aca3 a7bd abfa 42bd
00000110: a3c8 4fbb 2549 71bc cac2 423d 386d a03d
00000120: 29e0 11bd 2cce c7bd 563b 0ebe f6e5 29bd
00000130: 24dd c83c ec3b 87bd 5ccf 34bc ffe4 263d
00000140: 4f31 8cbe ee93 723d 7133 cfbb 7025 ccbd
00000150: 7480 773c f323 5abd f984 1c3e 4bf3 313d
00000160: 4a15 d9bc 079b 7c3d aa6b d1bd b8de 7b3d
00000170: 3332 36bd a718 a1bd fefd a5bc e4b7 0abb
00000180: d87d 2fbc b103 353c 1129 bb3d 407c 343d
00000190: e96e a6bd 8497 473d 428d a13b 536a 32bd
000001a0: e50f 18be 966c a3bd f6fd 183d 3e26 a93d
000001b0: bdd8 d1bd 801f af3c 3cd8 c6bd 5fd9 dbbd
000001c0: 1287 bfbd b33b f3bc 7ff5 8fbd 3ff2 353c
000001d0: 8bad 86bd ac77 293d 5bb0 04bd c637 123d
000001e0: 85f8 ba3d a425 e7bc 9b76 943b 2654 87bd
000001f0: 66cd 413a 9b32 8abd 67dd 81be 79b7 c53c
00000200: a937 d9bd 8696 7dbe 5aad f43d edb3 e8bb
00000210: 845f dcbc af8b 013d a0e7 07be b8e2 29bd
00000220: 1fab 8ebd 7965 aabd 9638 d5bb f77d 14b9
00000230: 31a1 f33c 7465 a8bb aebd 11bd a385 a83d
00000240: 8e72 bbbc d5b2 253c 2173 013d 01a5 18bc
00000250: f0f8 0a3e 2032 98bd b55a ce3c f45b 8ebd
00000260: 1663 a73d e0df 693d b289 11ba 00b3 d53b
00000270: 9f67 bf3d f66e bfbd fb61 62bd 0523 c3bc
00000280: 654b 3bbb 3421 ac3c 29d3 86bc cf22 8d3c
00000290: c1dd 61bd c365 f8bd f87b e3bb 2eec 6dbd
000002a0: 85bb 36bc 0266 aabd 6903 9c3b 5840 553d
000002b0: 62b1 02bd 0fe6 1a3d dc5f 3fbe 1538 f63c
000002c0: 3b27 4fbe 9a52 d3b8 6f21 d73c 4a0a 5a3c
000002d0: e6b5 abbc 762b 053e fe27 ca3c 2a49 513c
000002e0: 1c7e e5bc 1a4b 7dbc c3e3 b53c 97a1 b23c
000002f0: 825a 73bd 98dc 163d 50dc c5bd ee7c a43b
00000300: 4e5c c6bc f371 08be f382 d73c 7eac 3a3c
00000310: 370b dfbd 6af5 eabc 3f13 9bbd 14ad d93c
00000320: 90e9 293d 7c1f 94be ecaa 203b 3eab 3fb9
00000330: d813 10bc e56b c53c 8f6f 23be d7f0 5abd
00000340: d4d4 b63c 2694 693d fb97 0a3b aebd c43c
00000350: 2932 4ebb bb05 4d3d 301c d8bd f0d4 4cbc
00000360: 0142 d03c 13b8 20be 7f2d 08be 0360 dfbd
00000370: d370 9ebd b8f9 e03c 5922 5e3d b22f f63d
00000380: 4a16 99bd 144b 9d3c 4495 ca3c 6569 3abd
00000390: cda9 a43d 6fe5 c7bc 888a ad3d b022 6c3c
000003a0: 3e5e 1d3d 38a7 433d 6151 9f3b 5cb0 313d
000003b0: d524 35be 4549 f33c bd9b 0abe c9e5 4bbc
000003c0: df92 e9bc 8042 f4bd 0956 25bd 9639 49bd
000003d0: 52cb 9f3c 3792 ce3c e309 2f3d 8131 123c
000003e0: 22c5 ccbb eeca fd3c 9f83 59bd 8460 0bbd
000003f0: c598 1abe 3be8 a8bd 86df c83c 6625 a2be

fc2.bias f4 [32]
0.06432189 0.15204024 0.14811894 -0.003845745 -0.03968287 0.1671276 0.13114724 -0.005546774
0.032363318 -0.054124635 0.16875583 0.08118462 -0.045375075 0.14552446 0.16205883 -0.013652292
0.1455732 0.0336579 -0.26067188 -0.13606119 0.13021456 0.122764 0.011747329 -0.04853515
-0.16761793 0.10694339 -0.02621858 0.10788818 0.02509301 0.050924372 0.10804443 0.11962001
00000000: 32bb 833d 70b0 1b3e 7eac 173e e508 7cbb
00000010: 818a 22bd 7f23 2b3e 764b 063e b6c1 b5bb
00000020: 668f 043d cbb1 5dbd 54ce 2c3e 1f44 a63d
00000030: 37db 39bd 5d04 153e c0f2 253e ddad 5fbc
00000040: 2411 153e dedc 093d c976 85be a053 0bbe
00000050: f756 053e b16b fb3d de77 403c cbcc 46bd
00000060: 09a4 2bbe 2305 db3d 59c8 d6bc 7af4 dc3d
00000070: db8f cd3c 1396 503d 6646 dd3d 56fb f43d

bn2.weight f4 [32]
1.4378426 1.355077 1.4449139 1.4366323 1.3818381 1.3917896 1.4101487 1.4673487
1.4297706 1.397948 1.3626893 1.3944951 1.395574 1.4002968 1.4380642 1.4113789
1.3875793 1.4886545 1.4440998 1.4960617 1.4261922 1.3859092 1.3886365 1.365277
1.3706197 1.4752251 1.4310747 1.3952128 1.3774513 1.3835548 1.3763428 1.4210051
00000000: 3a0b b83f 2a73 ad3f f0f2 b83f 91e3 b73f
00000010: 12e0 b03f 2926 b23f c17f b43f 15d2 bb3f
00000020: b902 b73f f6ef b23f 9a6c ae3f d17e b23f
00000030: 2ba2 b23f ed3c b33f 7d12 b83f 10a8 b43f
00000040: 339c b13f 3b8c be3f 43d8 b83f f37e bf3f
00000050: 778d b63f 7965 b13f d7be b13f 66c1 ae3f
00000060: 7770 af3f 2dd4 bc3f 752d b73f 5596 b23f
00000070: 5350 b03f 5318 b13f 002c b03f 7fe3 b53f

bn2.bias f4 [32]
-0.029061446 -0.049216703 0.026262138 -0.056395166 0.14383808 -0.14478159 0.027995193 0.050164413
-0.29219824 -0.090827264 0.032653637 0.03094234 0.07723808 -0.007945858 0.31869602 0.03448751
0.120583594 0.0083650155 0.07426444 -0.25845248 -0.010002211 -0.118049145 -0.032457646 -0.010297984
0.03827466 0.20752597 -0.038173508 -0.041565653 0.083867304 -0.17780477 0.04381314 0.101853095
00000000: 4512 eebc 7497 49bd b223 d73c 9efe 66bd
00000010: 4a4a 133e a041 14be 2d56 e53c 3379 4d3d
00000020: 029b 95be a503 babd d2bf 053d ca7a fd3c
00000030: 002f 9e3d 582f 02bc 202c a33e c642 0d3d
00000040: 88f4 f63d 6b0d 093c f417 983d e253 84be
00000050: 50e0 23bc c0c3 f1bd 4ff2 04bd e0b8 28bc
00000060: e4c5 1c3d b081 543e d35b 1cbd bf40 2abd
00000070: 9fc2 ab3d 7412 36be 6875 333d 5b98 d03d

bn2.running_mean f4 [32]
0.28677067 0.40348876 0.45265102 0.27326924 0.28040987 0.5234619 0.2847398 0.21078074
0.24211882 0.29312783 0.54734 0.27741408 0.31896183 0.30054072 0.41853115 0.3761316
0.34987038 0.2230101 0.12377861 0.09454301 0.41521436 0.46696505 0.26857305 0.21822222
0.20512377 0.573618 0.26314828 0.34191623 0.33062258 0.37938082 0.5958814 0.42241865
00000000: 9bd3 923e 1496 ce3e e0c1 e73e f2e9 8b3e
00000010: e291 8f3e 9901 063f 6ac9 913e e8d6 573e
00000020: ffed 773e da14 963e 791e 0c3f 3809 8e3e
00000030: f74e a33e 79e0 993e b749 d63e 5294 c03e
00000040: 3622 b33e c25c 643e a47f fd3d c49f c13d
00000050: fa96 d43e 0b16 ef3e 6882 893e a575 5f3e
00000060: f70b 523e a1d8 123f 5fbb 863e a50f af3e
00000070: 5d47 a93e 343e c23e af8b 183f 4247 d83e

bn2.running_var f4 [32]
0.15976626 0.1951182 0.24132316 0.15581594 0.17706677 0.26457703 0.09559367 0.099466674
0.12890436 0.2109607 0.25352535 0.1466011 0.200458 0.22427204 0.17997468 0.2630232
0.18226832 0.09652709 0.057169806 0.033171434 0.25989556 0.3157178 0.118179396 0.09888122
0.09284989 0.4835813 0.13345242 0.16506915 0.18719588 0.24633743 0.35790718 0.23384632
00000000: c499 233e 11cd 473e 6b1d 773e 378e 1f3e
00000010: fe50 353e a476 873e 9dc6 c33d 2fb5 cb3d
00000020: 81ff 033e 1506 583e 13ce 813e 991e 163e
00000030: dd44 4d3e 92a7 653e 484b 383e faaa 863e
00000040: 8ca4 3a3e ffaf c53d e32a 6a3d c5de 073d
00000050: 0811 853e c3a5 a13e 0a08 f23d 3d82 ca3d
00000060: 1528 be3d f897 f73e c0a7 083e e307 293e
00000070: 47b0 3f3e e13f 7c3e 9c3f b73e 6975 6f3e

output.weight f4 [22, 32]
0.37200415 0.21082112 0.21758449 -0.037534893 0.32457346 -0.12992696 0.21116291 0.23363794
-0.38114515 -0.33191 0.007498674 0.32550824 -0.19761078 0.38491938 0.22153321 -0.10649559
0.20961715 -0.19808228 -0.08865304 0.43554968 0.3712014 -0.31300128 -0.25340888 0.23513949
0.3197635 0.13576242 -0.18465109 -0.36508247 -0.15835118 -0.33250868 -0.16303292 0.034089398
-0.41049385 0.44348812 -0.35672158 -0.22901444 0.34806532 -0.3972119 0.35600746 -0.15856393
0.37792915 0.03697227 -0.047356434 -0.22991131 0.3664272 -0.1427378 -0.13662842 0.43729618
-0.30663818 -0.22614901 -0.0032385269 0.2872958 -0.16110384 -0.111061886 -0.36665007 -0.3467987
0.35103634 -0.26946586 -0.41194153 -0.080959514 0.017414814 -0.30881757 -0.40318123 -0.25641304
0.5066155 -0.44396722 -0.20531003 -0.21195057 -0.44444004 -0.26950076 -0.11817679 -0.33195084
0.22176465 -0.56721056 -0.6191257 0.44255754 -0.28748715 -0.36424538 -0.20925817 0.24645302
-0.38395885 0.29726002 -0.36131352 -0.1998452 -0.30869913 -0.15830594 0.15344438 -0.46808273
0.39594302 -0.3746681 0.18342198 0.18528032 0.24362731 0.3985743 -0.4352784 -0.33812192
-0.40687692 -0.18433698 0.3315046 0.27833173 0.102917135 -0.4252217 0.3536212 -0.15892322
0.18581815 -0.03117766 -0.35973075 -0.4257021 0.23660435 -0.19975576 -0.3489378 -0.16714838
-0.35658535 -0.2363237 0.2344941 -0.27770793 -0.15016003 -0.31727004 -0.26455563 -0.5392785
-0.1580146 0.2970201 -0.056334093 -0.16963017 0.33993664 0.47417763 0.25531134 0.41529757
0.19409834 0.31820816 0.36429265 -0.40297538 -0.31234515 -0.4344357 -0.19326898 -0.23800264
0.16563639 0.09506746 0.21773225 -0.13444628 -0.23634987 0.41161236 0.19245027 -0.40278566
0.40507 0.43826592 0.62644774 -0.24404779 0.16354696 0.0006607212 0.13098061 0.32768962
-0.08466826 -0.06159303 -0.2493715 0.29064187 -0.28612274 0.24511757 0.05695223 0.25111592
-0.015667252 0.2515736 0.3560748 -0.3894112 -0.081410065 0.16313072 0.06443575 -0.2670091
-0.13994426 0.018810757 -0.42005438 0.0016065678 -0.44931123 -0.24346195 -0.36310074 -0.12196067
-0.37200803 -0.49354506 -0.3378342 -0.21198505 -0.38420862 -0.26214203 -0.2607823 0.2809957
-0.26697332 0.47420433 -0.24775663 -0.42557743 0.21603206 -0.3467951 0.35062012 -0.36553016
-0.22711003 0.22487275 -0.5517003 0.34341022 -0.3631326 0.25616625 -0.44148743 -0.30480197
-0.29748023 -0.40130672 -0.20726338 -0.24739817 0.55512035 0.014891799 -0.02713862 0.17515102
-0.104884624 -0.07292146 -0.0050173374 -0.08819584 -0.30790314 -0.44023952 -0.037646987 -0.27218327
-0.064293005 0.3531534 0.42868584 -0.34505197 -0.37661672 -0.17159377 -0.39477694 -0.13634248
0.28936502 -0.36306366 -0.011011209 0.22534275 0.23602903 -0.49674305 0.14248927 -0.1379172
-0.43509334 0.17164797 0.46757078 0.07541407 0.3833997 -0.23838519 0.36492252 -0.24124978
-0.3501203 -0.096547276 -0.33570015 -0.27860036 -0.10140699 -0.36162254 -0.35360563 -0.23370577
0.37114218 0.086393185 -0.062016547 -0.15931754 -0.16605558 -0.35450295 0.3230966 0.29853237
00000000: 5477 be3e 7ee1 573e 78ce 5e3e 30be 19bd
00000010: 7e2e a63e 930b 05be 173b 583e c93e 6f3e
00000020: 7525 c3be 1cf0 a9be 70b7 f53b 04a9 a63e
00000030: 7b5a 4abe 2714 c53e 9ad9 623e 5c1a dabd
00000040: e1a5 563e 15d6 4abe ba8f b5bd 5e00 df3e
00000050: 1c0e be3e b441 a0be cfbe 81be 68c8 703e
00000060: 0bb8 a33e 4e05 0b3e 2d15 3dbe 17ec babe
00000070: d026 22be 943e aabe 1af2 26be 53a1 0b3d
00000080: 402c d2be e010 e33e 36a4 b6be c382 6abe
00000090: 9e35 b23e 5c5f cbbe 9c46 b63e 955e 22be
000000a0: ee7f c13e 3c70 173d d2f8 41bd df6d 6bbe
000000b0: 599c bb3e dc29 12be 52e8 0bbe 49e5 df3e
000000c0: aeff 9cbe 9b93 67be 773d 54bb 6f18 933e
000000d0: 68f8 24be 6a74 e3bd 8fb9 bbbe 998f b1be
000000e0: 09bb b33e 6ef7 89be 00ea d2be 1ace a5bd
000000f0: 83a9 8e3c 561d 9ebe c56d cebe 9248 83be
00000100: 8eb1 013f ac4f e3be cb3c 52be 9209 59be
00000110: a58d e3be 01fc 89be ac06 f2bd 76f5 a9be
00000120: 4616 633e b634 11bf 067f 1ebf e796 e23e
00000130: 8431 93be 5f7e babe c647 56be 2e5e 7c3e
00000140: 4196 c4be 7732 983e 16fe b8be 38a4 4cbe
00000150: d00d 9ebe f41a 22be 8620 1d3e 8aa8 efbe
00000160: 0bb9 ca3e 7fd4 bfbe f9d2 3b3e 20ba 3d3e
00000170: 7079 793e ee11 cc3e cfdc debe 511e adbe
00000180: 2c52 d0be d5c2 3cbe f9ba a93e 7f81 8e3e
00000190: 38c6 d23d a9b6 d9be d70d b53e c5bc 22be
000001a0: 1d47 3e3e 4b68 ffbc a12e b8be a0f5 d9be
000001b0: 6948 723e c68c 4cbe faa7 b2be f228 2bbe
000001c0: 5b92 b6be d7fe 71be 391f 703e bc2f 8ebe
000001d0: 8dc3 19be 3871 a2be d673 87be 280e 0abf
000001e0: 94ce 21be 0513 983e 94be 66bd 88b3 2dbe
000001f0: 2d0c ae3e 69c7 f23e 2bb8 823e e2a1 d43e
00000200: b7c1 463e 2eec a23e 9184 ba3e ca52 cebe
00000210: b4eb 9fbe 5b6e debe 4ee8 45be f7b6 73be
00000220: 969c 293e bab2 c23d 34f5 5e3e 49ac 09be
00000230: b305 72be dbbe d23e af11 453e ec39 cebe
00000240: 5665 cf3e 6464 e03e e15e 203f aae7 79be
00000250: db78 273e 4034 2d3a c81f 063e efc6 a73e
00000260: 8d66 adbd f948 7cbd 3e5b 7fbe 03cf 943e
00000270: ae7e 92be 1a00 7b3e be46 693d 4492 803e
00000280: 9c58 80bc 41ce 803e 704f b63e e860 c7be
00000290: 52ba a6bd bd0b 273e e4f6 833d 6bb5 88be
000002a0: 8c4d 0fbe 0419 9a3c 5e11 d7be 7893 d23a
000002b0: 1f0c e6be 174e 79be 57e8 b9be 84c6 f9bd
000002c0: d677 bebe f0b1 fcbe 9bf8 acbe 9c12 59be
000002d0: feb6 c4be 7b37 86be 4285 85be abde 8f3e
000002e0: bab0 88be e9ca f23e eab3 7dbe 49e5 d9be
000002f0: 8237 5d3e 218f b1be 7b84 b33e c526 bbbe
00000300: 888f 68be 0b45 663e 3b3c 0dbf 77d3 af3e
00000310: 84ec b9be 3928 833e a40a e2be 010f 9cbe
00000320: 544f 98be 1378 cdbe da3c 54be f255 7dbe
00000330: 5e1c 0e3f bbfc 733c d051 debc ca5a 333e
00000340: c0cd d6bd d957 95bd 7a68 a4bb 05a0 b4bd
00000350: 7ba5 9dbe 1367 e1be ba33 1abd 9b5b 8bbe
00000360: 0dac 83bd 86d0 b43e b67c db3e a7aa b0be
00000370: e8d3 c0be 47b6 2fbe 3420 cabe 5d9d 0bbe
00000380: a727 943e 7be3 b9be 5c68 34bc 40c0 663e
00000390: 98b1 713e 1b55 febe b5e8 113e 2b3a 0dbe
000003a0: 8ec4 debe 7cc4 2f3e 7065 ef3e b172 9a3d
000003b0: f74c c43e 3f1b 74be 20d7 ba3e 2f0a 77be
000003c0: f842 b3be 94ba c5bd e4e0 abbe b5a4 8ebe
000003d0: 78ae cfbd 9726 b9be cc0b b5be 9150 6fbe
000003e0: 5906 be3e e9ee b03d 1005 7ebd 2324 23be
000003f0: 790a 2abe 6981 b5be eb6c a53e 3cd9 983e

output.bias f4 [22]
0.010246277 0.08287411 -0.07968429 -0.19431514 -0.19057468 -0.14484844 0.15600856 0.034497395
0.1511075 -0.13083725 -0.12979507 -0.04103411 0.16788004 -0.158397 0.07035624 0.092859864
0.10040888 -0.12972425 0.02992605 -0.093393624 0.022016827 -0.13051267
00000000: 00e0 273c e7b9 a93d 8431 a3bd 8cfa 46be
00000010: 0226 43be 2653 14be b5c0 1f3e 244d 0d3d
00000020: edbb 1a3e 33fa 05be 00e9 04be 6213 28bd
00000030: bfe8 2b3e d332 22be ef16 903d 502d be3d
00000040: 2ca3 cd3d 6fd6 04be 7a27 f53c 2845 bfbd
00000050: a25c b43c 1da5 05be
